…
nInfo":{"status":"ok","timestamp":1712796633788,"user_tz":180,"elapsed":8,"user":{"displayName":"Caio Petrucci Rosa","userId":"07502538663141318097"}},"outputId":"21b43948-50e3-4877-80f0-e6347fee7459"},"execution_count":null,"outputs":[{"output_type":"stream","name":"stdout","text":["                  Base BERT Model                   \n","====================================================\n","\n","Número de parâmetros: \t\t\t 66,362,880\n","Número de parâmetros treináveis: \t 66,362,880\n","\n","Sumário do modelo:\n","DistilBertModel(\n","  (embeddings): Embeddings(\n","    (word_embeddings): Embedding(30522, 768, padding_idx=0)\n","    (position_embeddings): Embedding(512, 768)\n","    (LayerNorm): LayerNorm((768,), eps=1e-12, elementwise_affine=True)\n","    (dropout): Dropout(p=0.1, inplace=False)\n","  )\n","  (transformer): Transformer(\n","    (layer): ModuleList(\n","      (0-5): 6 x TransformerBlock(\n","        (attention): MultiHeadSelfAttention(\n","          (dropout): Dropout(p=0.1, inplace=False)\n","          (q_lin): Linear(in_features=768, out_features=768, bias=True)\n","          (k_lin): Linear(in_features=768, out_features=768, bias=True)\n","          (v_lin): Linear(in_features=768, out_features=768, bias=True)\n","          (out_lin): Linear(in_features=768, out_features=768, bias=True)\n","        )\n","        (sa_layer_norm): LayerNorm((768,), eps=1e-12, elementwise_affine=True)\n","        (ffn): FFN(\n","          (dropout): Dropout(p=0.1, inplace=False)\n","          (lin1): Linear(in_features=768, out_features=3072, bias=True)\n","          (lin2): Linear(in_features=3072, out_features=768, bias=True)\n","          (activation): GELUActivation()\n","        )\n","        (output_layer_norm): LayerNorm((768,), eps=1e-12, elementwise_affine=True)\n","      )\n","    )\n","  )\n",")\n"]}]},{"cell_type":"code","source":["seq_classification_model = DistilBertForSequenceClassification.from_pretrained(bert_checkpoint)"],"metadata":{"colab":{"base_uri":"https://localhost:8080/"},"id":"Yh4cAckaHMRH","executionInfo":{"status":"ok","timestamp":1712796634399,"user_tz":180,"elapsed":616,"user":{"displayName
…
"elapsed":35,"user":{"displayName":"Caio Petrucci Rosa","userId":"07502538663141318097"}},"outputId":"004f64d0-47b8-4847-cd7e-cb83bcf9ef6a"},"execution_count":null,"outputs":[{"output_type":"stream","name":"stdout","text":["         Sequence Classification BERT Model         \n","====================================================\n","\n","Número de parâmetros: \t\t\t 66,955,010\n","Número de parâmetros treináveis: \t 66,955,010\n","\n","Sumário do modelo:\n","DistilBertForSequenceClassification(\n","  (distilbert): DistilBertModel(\n","    (embeddings): Embeddings(\n","      (word_embeddings): Embedding(30522, 768, padding_idx=0)\n","      (position_embeddings): Embedding(512, 768)\n","      (LayerNorm): LayerNorm((768,), eps=1e-12, elementwise_affine=True)\n","      (dropout): Dropout(p=0.1, inplace=False)\n","    )\n","    (transformer): Transformer(\n","      (layer): ModuleList(\n","        (0-5): 6 x TransformerBlock(\n","          (attention): MultiHeadSelfAttention(\n","            (dropout): Dropout(p=0.1, inplace=False)\n","            (q_lin): Linear(in_features=768, out_features=768, bias=True)\n","            (k_lin): Linear(in_features=768, out_features=768, bias=True)\n","            (v_lin): Linear(in_features=768, out_features=768, bias=True)\n","            (out_lin): Linear(in_features=768, out_features=768, bias=True)\n","          )\n","          (sa_layer_norm): LayerNorm((768,), eps=1e-12, elementwise_affine=True)\n","          (ffn): FFN(\n","            (dropout): Dropout(p=0.1, inplace=False)\n","            (lin1): Linear(in_features=768, out_features=3072, bias=True)\n","            (lin2): Linear(in_features=3072, out_features=768, bias=True)\n","            (activation): GELUActivation()\n","          )\n","          (output_layer_norm): LayerNorm((768,), eps=1e-12, elementwise_affine=True)\n","        )\n","      )\n","    )\n","  )\n","  (pre_classifier): Linear(in_features=768, out_features=768, bias=True)\n","  (classifier): Linear(in_features=768, out_features=2, bias=True)\n","  (dropout): Dropout(p=0.2, inplace=False)\n",")\n"]}]},{"cell_type":"markdown","source":["Exemplificação de tokenização e do *forward pass*:"],"metadata":{"id":"-UcbFsCe9u-u"}},{"cell_type":"code","source":["train_loader = DataLoader(train_data, batch_size=4, shuffle=True)"],"metadata":{"id":"YdduWIDRMr7m"},"execution_count":null,"outputs":[]},{"cel
…
